…
2022-05-18 16:36:30.915583 Train Data loading done 10.5 sec. #user=498975, #item=427888, #train=65601874, #test=498975

:::MLPv0.5.0 ncf 1652862990.980086088 (/torch/src/pytorch_models/Training/Recommendation/DLRM/training/recommendation/pytorch/neumf.py:19) model_hp_mf_dim: 64

:::MLPv0.5.0 ncf 1652862992.173985958 (/torch/src/pytorch_models/Training/Recommendation/DLRM/training/recommendation/pytorch/neumf.py:27) model_hp_mlp_layer_sizes: [256, 256, 128, 64]

:::MLPv0.5.0 ncf 1652862992.866998434 (/torch/src/pytorch_models/Training/Recommendation/DLRM/training/recommendation/pytorch/neumf.py:27) model_hp_mlp_layer_sizes: [256, 256, 128, 64]
NeuMF(
  (mf_user_embed): Embedding(498975, 64)
  (mf_item_embed): Embedding(427888, 64)
  (mlp_user_embed): Embedding(498975, 128)
  (mlp_item_embed): Embedding(427888, 128)
  (mlp): ModuleList(
    (0): Linear(in_features=256, out_features=256, bias=True)
    (1): Linear(in_features=256, out_features=128, bias=True)
    (2): Linear(in_features=128, out_features=64, bias=True)
  )
  (final): Linear(in_features=128, out_features=1, bias=True)
)
178064769 parameters

:::MLPv0.5.0 ncf 1652862993.924229622 (ncf.py:419) opt_learning_rate: 0.0002

:::MLPv0.5.0 ncf 1652862993.924649239 (ncf.py:420) opt_name: "Adam"

:::MLPv0.5.0 ncf 1652862993.924886703 (ncf.py:421) opt_hp_Adam_beta1: 0.9

:::MLPv0.5.0 ncf 1652862993.925114632 (ncf.py:422) opt_hp_Adam_beta2: 0.999

:::MLPv0.5.0 ncf 1652862993.925347567 (ncf.py:423) opt_hp_Adam_epsilon: 1e-08

:::MLPv0.5.0 ncf 1652862993.925565720 (ncf.py:424) model_hp_loss_fn: "binary_cross_entropy"
NeuMF(
  (mf_user_embed): Embedding(498975, 64)
  (mf_item_embed): Embedding(427888, 64)
  (mlp_user_embed): Embedding(498975, 128)
  (mlp_item_embed): Embedding(427888, 128)
  (mlp): ModuleList(
    (0): Linear(in_features=256, out_features=256, bias=True)
    (1): Linear(in_features=256, out_features=128, bias=True)
    (2): Linear(in_features=128, out_features=64, bias=True)
  )
  (final): Linear(in_features=128, out_features=1, bias=True)
)
178064769 parameters

:::MLPv0.5.0 ncf 1652862994.614914417 (ncf.py:419) opt_learning_rate: 0.0002

:::MLPv0.5.0 ncf 1652862994.615232944 (ncf.py:420) opt_name: "Adam"

:::MLPv0.5.0 ncf 1652862994.615475655 (ncf.py:421) opt_hp_Adam_beta1: 0.9

:::MLPv0.5.0 ncf 1652862994.615705013 (ncf.py:422) opt_hp_Adam_beta2: 0.999

:::MLPv0.5.0 ncf 1652862994.615954161 (ncf.py:423) opt_hp_Adam_epsilon: 1e-08
…
